…
ext_r0.5_search-run10', debug=False, init_w=0.003, train_episode=200, epsilon=50000, seed=2024, n_gpu=1, n_worker=16, data_bsize=4, resume='default', ratios=None, channels=None, export_path=None, use_new_input=False, pr_ratio=0.8, export_num=None)
Building Index
=> Prunable layer idx:  [61, 67, 75, 81, 89, 95, 103, 109, 117, 123, 131, 137, 145, 151, 159, 165, 173, 179, 187, 193, 201, 207, 215, 221, 229, 235, 243, 249, 257, 263, 271, 277, 285, 291, 299, 305, 313, 319, 327, 333, 341, 347, 355, 361, 369, 375, 383, 389, 397, 403, 411, 417, 425, 431]
=> Prunable Ops:  [LlamaSdpaAttention(
  (q_proj): Linear(in_features=4096, out_features=4096, bias=False)
  (k_proj): Linear(in_features=4096, out_features=4096, bias=False)
  (v_proj): Linear(in_features=4096, out_features=4096, bias=False)
  (o_proj): Linear(in_features=4096, out_features=4096, bias=False)
  (rotary_emb): LlamaRotaryEmbedding()
), LlamaMLP(
  (gate_proj): Linear(in_features=4096, out_features=11008, bias=False)
  (up_proj): Linear(in_features=4096, out_features=11008, bias=False)
  (down_proj): Linear(in_features=11008, out_features=4096, bias=False)
  (act_fn): SiLU()
), LlamaSdpaAttention(
  (q_proj): Linear(in_features=4096, out_features=4096, bias=False)
  (k_proj): Linear(in_features=4096, out_features=4096, bias=False)
  (v_proj): Linear(in_features=4096, out_features=4096, bias=False)
  (o_proj): Linear(in_features=4096, out_features=4096, bias=False)
  (rotary_emb): LlamaRotaryEmbedding()
), LlamaMLP(
  (gate_proj): Linear(in_features=4096, out_features=11008, bias=False)
  (up_proj): Linear(in_features=4096, out_features=11008, bias=False)
  (down_proj): Linear(in_features=11008, out_features=4096, bias=False)
  (act_fn): SiLU()
), LlamaSdpaAttention(
  (q_proj): Linear(in_features=4096, out_features=4096, bias=False)
  (k_proj): Linear(in_features=4096, out_features=4096, bias=False)
  (v_proj): Linear(in_features=4096, out_features=4096, bias=False)
  (o_proj): Linear(in_features=4096, out_features=4096, bias=False)
  (rotary_emb): LlamaRotaryEmbedding()
), LlamaMLP(
  (gate_proj): Linear(in_features=4096, out_features=11008, bias=False)
  (up_proj): Linear(in_features=4096, out_features=11008, bias=False)
  (down_proj): Linear(in_features=11008, out_features=4096, bias=False)
  (act_fn): SiLU()
), LlamaSdpaAttention(
  (q_proj): Linear(in_features=4096, out_features=4096, bias=False)
  (k_proj): Linear(in_features=4096, out_features=4096, bias=False)
  (v_proj): Linear(in_features=4096, out_features=4096, bias=False)
  (o_proj): Linear(in_features=4096, out_features=4096, bias=False)
  (rotary_emb): LlamaRotaryEmbedding()
), LlamaMLP(
  (gate_proj): Linear(in_features=4096, out_features=11008, bias=False)
  (up_proj): Linear(in_features=4096, out_features=11008, bias=False)
  (down_proj): Linear(in_features=11008, out_features=4096, bias=False)
  (act_fn): SiLU()
), LlamaSdpaAttention(
  (q_proj): Linear(in_features=4096, out_features=4096, bias=False)
  (k_proj): Linear(in_features=4096, out_features=4096, bias=False)
  (v_proj): Linear(in_features=4096, out_features=4096, bias=False)
  (o_proj): Linear(in_features=4096, out_features=4096, bias=False)
  (rotary_emb): LlamaRotaryEmbedding()
), LlamaMLP(
  (gate_proj): Linear(in_features=4096, out_features=11008, bias=False)
  (up_proj): Linear(in_features=4096, out_features=11008, bias=False)
  (down_proj): Linear(in_features=11008, out_features=4096, bias=False)
  (act_fn): SiLU()
), LlamaSdpaAttention(
  (q_proj): Linear(in_features=4096, out_features=4096, bias=False)
  (k_proj): Linear(in_features=4096, out_features=4096, bias=False)
  (v_proj): Linear(in_features=4096, out_features=4096, bias=False)
  (o_proj): Linear(in_features=4096, out_features=4096, bias=False)
  (rotary_emb): LlamaRotaryEmbedding()
), LlamaMLP(
  (gate_proj): Linear(in_features=4096, out_features=11008, bias=False)
  (up_proj): Linear(in_features=4096, out_features=11008, bias=False)
  (down_proj): Linear(in_features=11008, out_features=4096, bias=False)
  (act_fn): SiLU()
), LlamaSdpaAttention(
  (q_proj): Linear(in_features=4096, out_features=4096, bias=False)
  (k_proj): Linear(in_features=4096, out_features=4096, bias=False)
  (v_proj): Linear(in_features=4096, out_features=4096, bias=False)
  (o_proj): Linear(in_features=4096, out_features=4096, bias=False)
  (rotary_emb): LlamaRotaryEmbedding()
), LlamaMLP(
  (gate_proj): Linear(in_features=4096, out_features=11008, bias=False)
  (up_proj): Linear(in_features=4096, out_features=11008, bias=False)
  (down_proj): Linear(in_features=11008, out_features=4096, bias=False)
  (act_fn): SiLU()
), LlamaSdpaAttention(
  (q_proj): Linear(in_features=4096, out_features=4096, bias=False)
  (k_proj): Linear(in_features=4096, out_features=4096, bias=False)
  (v_proj): Linear(in_features=4096, out_features=4096, bias=False)
  (o_proj): Linear(in_features=4096, out_features=4096, bias=False)
  (rotary_emb): LlamaRotaryEmbedding()
), LlamaMLP(
  (gate_proj): Linear(in_features=4096, out_features=11008, bias=False)
  (up_proj): Linear(in_features=4096, out_features=11008, bias=False)
  (down_proj): Linear(in_features=11008, out_features=4096, bias=False)
  (act_fn): SiLU()
), LlamaSdpaAttention(
  (q_proj): Linear(in_features=4096, out_features=4096, bias=False)
  (k_proj): Linear(in_features=4096, out_features=4096, bias=False)
  (v_proj): Linear(in_features=4096, out_features=4096, bias=False)
  (o_proj): Linear(in_features=4096, out_features=4096, bias=False)
  (rotary_emb): LlamaRotaryEmbedding()
), LlamaMLP(
  (gate_proj): Linear(in_features=4096, out_features=11008, bias=False)
  (up_proj): Linear(in_features=4096, out_features=11008, bias=False)
  (down_proj): Linear(in_features=11008, out_features=4096, bias=False)
  (act_fn): SiLU()
), LlamaSdpaAttention(
  (q_proj): Linear(in_features=4096, out_features=4096, bias=False)
  (k_proj): Linear(in_features=4096, out_features=4096, bias=False)
  (v_proj): Linear(in_features=4096, out_features=4096, bias=False)
  (o_proj): Linear(in_features=4096, out_features=4096, bias=False)
  (rotary_emb): LlamaRotaryEmbedding()
), LlamaMLP(
  (gate_proj): Linear(in_features=4096, out_features=11008, bias=False)
  (up_proj): Linear(in_features=4096, out_features=11008, bias=False)
  (down_proj): Linear(in_features=11008, out_features=4096, bias=False)
  (act_fn): SiLU()
), LlamaSdpaAttention(
  (q_proj): Linear(in_features=4096, out_features=4096, bias=False)
  (k_proj): Linear(in_features=4096, out_features=4096, bias=False)
  (v_proj): Linear(in_features=4096, out_features=4096, bias=False)
  (o_proj): Linear(in_features=4096, out_features=4096, bias=False)
  (rotary_emb): LlamaRotaryEmbedding()
), LlamaMLP(
  (gate_proj): Linear(in_features=4096, out_features=11008, bias=False)
  (up_proj): Linear(in_features=4096, out_features=11008, bias=False)
  (down_proj): Linear(in_features=11008, out_features=4096, bias=False)
  (act_fn): SiLU()
), LlamaSdpaAttention(
  (q_proj): Linear(in_features=4096, out_features=4096, bias=False)
  (k_proj): Linear(in_features=4096, out_features=4096, bias=False)
  (v_proj): Linear(in_features=4096, out_features=4096, bias=False)
  (o_proj): Linear(in_features=4096, out_features=4096, bias=False)
  (rotary_emb): LlamaRotaryEmbedding()
), LlamaMLP(
  (gate_proj): Linear(in_features=4096, out_features=11008, bias=False)
  (up_proj): Linear(in_features=4096, out_features=11008, bias=False)
  (down_proj): Linear(in_features=11008, out_features=4096, bias=False)
  (act_fn): SiLU()
), LlamaSdpaAttention(
  (q_proj): Linear(in_features=4096, out_features=4096, bias=False)
  (k_proj): Linear(in_features=4096, out_features=4096, bias=False)
  (v_proj): Linear(in_features=4096, out_features=4096, bias=False)
  (o_proj): Linear(in_features=4096, out_features=4096, bias=False)
  (rotary_emb): LlamaRotaryEmbedding()
), LlamaMLP(
  (gate_proj): Linear(in_features=4096, out_features=11008, bias=False)
  (up_proj): Linear(in_features=4096, out_features=11008, bias=False)
  (down_proj): Linear(in_features=11008, out_features=4096, bias=False)
  (act_fn): SiLU()
), LlamaSdpaAttention(
  (q_proj): Linear(in_features=4096, out_features=4096, bias=False)
  (k_proj): Linear(in_features=4096, out_features=4096, bias=False)
  (v_proj): Linear(in_features=4096, out_features=4096, bias=False)
  (o_proj): Linear(in_features=4096, out_features=4096, bias=False)
  (rotary_emb): LlamaRotaryEmbedding()
), LlamaMLP(
  (gate_proj): Linear(in_features=4096, out_features=11008, bias=False)
  (up_proj): Linear(in_features=4096, out_features=11008, bias=False)
  (down_proj): Linear(in_features=11008, out_features=4096, bias=False)
  (act_fn): SiLU()
), LlamaSdpaAttention(
  (q_proj): Linear(in_features=4096, out_features=4096, bias=False)
  (k_proj): Linear(in_features=4096, out_features=4096, bias=False)
  (v_proj): Linear(in_features=4096, out_features=4096, bias=False)
  (o_proj): Linear(in_features=4096, out_features=4096, bias=False)
  (rotary_emb): LlamaRotaryEmbedding()
), LlamaMLP(
  (gate_proj): Linear(in_features=4096, out_features=11008, bias=False)
  (up_proj): Linear(in_features=4096, out_features=11008, bias=False)
  (down_proj): Linear(in_features=11008, out_features=4096, bias=False)
  (act_fn): SiLU()
), LlamaSdpaAttention(
  (q_proj): Linear(in_features=4096, out_features=4096, bias=False)
  (k_proj): Linear(in_features=4096, out_features=4096, bias=False)
  (v_proj): Linear(in_features=4096, out_features=4096, bias=False)
  (o_proj): Linear(in_features=4096, out_features=4096, bias=False)
  (rotary_emb): LlamaRotaryEmbedding()
), LlamaMLP(
  (gate_proj): Linear(in_features=4096, out_features=11008, bias=False)
  (up_proj): Linear(in_features=4096, out_features=11008, bias=False)
  (down_proj): Linear(in_features=11008, out_features=4096, bias=False)
  (act_fn): SiLU()
), LlamaSdpaAttention(
  (q_proj): Linear(in_features=4096, out_features=4096, bias=False)
  (k_proj): Linear(in_features=4096, out_features=4096, bias=False)
  (v_proj): Linear(in_features=4096, out_features=4096, bias=False)
  (o_proj): Linear(in_features=4096, out_features=4096, bias=False)
  (rotary_emb): LlamaRotaryEmbedding()
), LlamaMLP(
  (gate_proj): Linear(in_features=4096, out_features=11008, bias=False)
  (up_proj): Linear(in_features=4096, out_features=11008, bias=False)
  (down_proj): Linear(in_features=11008, out_features=4096, bias=False)
  (act_fn): SiLU()
), LlamaSdpaAttention(
  (q_proj): Linear(in_features=4096, out_features=4096, bias=False)
  (k_proj): Linear(in_features=4096, out_features=4096, bias=False)
  (v_proj): Linear(in_features=4096, out_features=4096, bias=False)
  (o_proj): Linear(in_features=4096, out_features=4096, bias=False)
  (rotary_emb): LlamaRotaryEmbedding()
), LlamaMLP(
  (gate_proj): Linear(in_features=4096, out_features=11008, bias=False)
  (up_proj): Linear(in_features=4096, out_features=11008, bias=False)
  (down_proj): Linear(in_features=11008, out_features=4096, bias=False)
  (act_fn): SiLU()
), LlamaSdpaAttention(
  (q_proj): Linear(in_features=4096, out_features=4096, bias=False)
  (k_proj): Linear(in_features=4096, out_features=4096, bias=False)
  (v_proj): Linear(in_features=4096, out_features=4096, bias=False)
  (o_proj): Linear(in_features=4096, out_features=4096, bias=False)
  (rotary_emb): LlamaRotaryEmbedding()
), LlamaMLP(
  (gate_proj): Linear(in_features=4096, out_features=11008, bias=False)
  (up_proj): Linear(in_features=4096, out_features=11008, bias=False)
  (down_proj): Linear(in_features=11008, out_features=4096, bias=False)
  (act_fn): SiLU()
), LlamaSdpaAttention(
  (q_proj): Linear(in_features=4096, out_features=4096, bias=False)
  (k_proj): Linear(in_features=4096, out_features=4096, bias=False)
  (v_proj): Linear(in_features=4096, out_features=4096, bias=False)
  (o_proj): Linear(in_features=4096, out_features=4096, bias=False)
  (rotary_emb): LlamaRotaryEmbedding()
), LlamaMLP(
  (gate_proj): Linear(in_features=4096, out_features=11008, bias=False)
  (up_proj): Linear(in_features=4096, out_features=11008, bias=False)
  (down_proj): Linear(in_features=11008, out_features=4096, bias=False)
  (act_fn): SiLU()
), LlamaSdpaAttention(
  (q_proj): Linear(in_features=4096, out_features=4096, bias=False)
  (k_proj): Linear(in_features=4096, out_features=4096, bias=False)
  (v_proj): Linear(in_features=4096, out_features=4096, bias=False)
  (o_proj): Linear(in_features=4096, out_features=4096, bias=False)
  (rotary_emb): LlamaRotaryEmbedding()
), LlamaMLP(
  (gate_proj): Linear(in_features=4096, out_features=11008, bias=False)
  (up_proj): Linear(in_features=4096, out_features=11008, bias=False)
  (down_proj): Linear(in_features=11008, out_features=4096, bias=False)
  (act_fn): SiLU()
), LlamaSdpaAttention(
  (q_proj): Linear(in_features=4096, out_features=4096, bias=False)
  (k_proj): Linear(in_features=4096, out_features=4096, bias=False)
  (v_proj): Linear(in_features=4096, out_features=4096, bias=False)
  (o_proj): Linear(in_features=4096, out_features=4096, bias=False)
  (rotary_emb): LlamaRotaryEmbedding()
), LlamaMLP(
  (gate_proj): Linear(in_features=4096, out_features=11008, bias=False)
  (up_proj): Linear(in_features=4096, out_features=11008, bias=False)
  (down_proj): Linear(in_features=11008, out_features=4096, bias=False)
  (act_fn): SiLU()
), LlamaSdpaAttention(
  (q_proj): Linear(in_features=4096, out_features=4096, bias=False)
  (k_proj): Linear(in_features=4096, out_features=4096, bias=False)
  (v_proj): Linear(in_features=4096, out_features=4096, bias=False)
  (o_proj): Linear(in_features=4096, out_features=4096, bias=False)
  (rotary_emb): LlamaRotaryEmbedding()
), LlamaMLP(
  (gate_proj): Linear(in_features=4096, out_features=11008, bias=False)
  (up_proj): Linear(in_features=4096, out_features=11008, bias=False)
  (down_proj): Linear(in_features=11008, out_features=4096, bias=False)
  (act_fn): SiLU()
), LlamaSdpaAttention(
  (q_proj): Linear(in_features=4096, out_features=4096, bias=False)
  (k_proj): Linear(in_features=4096, out_features=4096, bias=False)
  (v_proj): Linear(in_features=4096, out_features=4096, bias=False)
  (o_proj): Linear(in_features=4096, out_features=4096, bias=False)
  (rotary_emb): LlamaRotaryEmbedding()
), LlamaMLP(
  (gate_proj): Linear(in_features=4096, out_features=11008, bias=False)
  (up_proj): Linear(in_features=4096, out_features=11008, bias=False)
  (down_proj): Linear(in_features=11008, out_features=4096, bias=False)
  (act_fn): SiLU()
), LlamaSdpaAttention(
  (q_proj): Linear(in_features=4096, out_features=4096, bias=False)
  (k_proj): Linear(in_features=4096, out_features=4096, bias=False)
  (v_proj): Linear(in_features=4096, out_features=4096, bias=False)
  (o_proj): Linear(in_features=4096, out_features=4096, bias=False)
  (rotary_emb): LlamaRotaryEmbedding()
), LlamaMLP(
  (gate_proj): Linear(in_features=4096, out_features=11008, bias=False)
  (up_proj): Linear(in_features=4096, out_features=11008, bias=False)
  (down_proj): Linear(in_features=11008, out_features=4096, bias=False)
  (act_fn): SiLU()
), LlamaSdpaAttention(
  (q_proj): Linear(in_features=4096, out_features=4096, bias=False)
  (k_proj): Linear(in_features=4096, out_features=4096, bias=False)
  (v_proj): Linear(in_features=4096, out_features=4096, bias=False)
  (o_proj): Linear(in_features=4096, out_features=4096, bias=False)
  (rotary_emb): LlamaRotaryEmbedding()
), LlamaMLP(
  (gate_proj): Linear(in_features=4096, out_features=11008, bias=False)
  (up_proj): Linear(in_features=4096, out_features=11008, bias=False)
  (down_proj): Linear(in_features=11008, out_features=4096, bias=False)
  (act_fn): SiLU()
), LlamaSdpaAttention(
  (q_proj): Linear(in_features=4096, out_features=4096, bias=False)
  (k_proj): Linear(in_features=4096, out_features=4096, bias=False)
  (v_proj): Linear(in_features=4096, out_features=4096, bias=False)
  (o_proj): Linear(in_features=4096, out_features=4096, bias=False)
  (rotary_emb): LlamaRotaryEmbedding()
), LlamaMLP(
  (gate_proj): Linear(in_features=4096, out_features=11008, bias=False)
  (up_proj): Linear(in_features=4096, out_features=11008, bias=False)
  (down_proj): Linear(in_features=11008, out_features=4096, bias=False)
  (act_fn): SiLU()
)]
=> Layer Type Dict:  {61: <class 'transformers.models.llama.modeling_llama.LlamaSdpaAttention'>, 67: <class 'transformers.models.llama.modeling_llama.LlamaMLP'>, 75: <class 'transformers.models.llama.modeling_llama.LlamaSdpaAttention'>, 81: <class 'transformers.models.llama.modeling_llama.LlamaMLP'>, 89: <class 'transformers.m
…
